{"class_name": "Model", "config": {"name": "model", "layers": [{"name": "input_1", "class_name": "InputLayer", "config": {"batch_input_shape": [1, 300, 300, 3], "dtype": "float32", "sparse": false, "name": "input_1"}, "inbound_nodes": []}, {"name": "conv1_pad", "class_name": "ZeroPadding2D", "config": {"name": "conv1_pad", "trainable": true, "dtype": "float32", "padding": [[0, 1], [0, 1]], "data_format": "channels_last"}, "inbound_nodes": [[["input_1", 0, 0, {}]]]}, {"name": "conv1", "class_name": "Conv2D", "config": {"name": "conv1", "trainable": true, "dtype": "float32", "filters": 32, "kernel_size": [3, 3], "strides": [2, 2], "padding": "valid", "data_format": "channels_last", "dilation_rate": [1, 1], "activation": "linear", "use_bias": false, "kernel_initializer": {"class_name": "GlorotUniform", "config": {"seed": null}}, "bias_initializer": {"class_name": "Zeros", "config": {}}, "kernel_regularizer": null, "bias_regularizer": null, "activity_regularizer": null, "kernel_constraint": null, "bias_constraint": null}, "inbound_nodes": [[["conv1_pad", 0, 0, {}]]]}, {"name": "conv1_bn", "class_name": "BatchNormalization", "config": {"name": "conv1_bn", "trainable": true, "dtype": "float32", "axis": [3], "momentum": 0.99, "epsilon": 0.001, "center": true, "scale": true, "beta_initializer": {"class_name": "Zeros", "config": {}}, "gamma_initializer": {"class_name": "Ones", "config": {}}, "moving_mean_initializer": {"class_name": "Zeros", "config": {}}, "moving_variance_initializer": {"class_name": "Ones", "config": {}}, "beta_regularizer": null, "gamma_regularizer": null, "beta_constraint": null, "gamma_constraint": null}, "inbound_nodes": [[["conv1", 0, 0, {}]]]}, {"name": "conv1_relu", "class_name": "ReLU", "config": {"name": "conv1_relu", "trainable": true, "dtype": "float32", "max_value": 6.0, "negative_slope": 0.0, "threshold": 0.0}, "inbound_nodes": [[["conv1_bn", 0, 0, {}]]]}, {"name": "conv_dw_1", "class_name": "DepthwiseConv2D", "config": {"name": "conv_dw_1", "trainable": true, "dtype": "float32", "kernel_size": [3, 3], "strides": [1, 1], "padding": "same", "data_format": "channels_last", "dilation_rate": [1, 1], "activation": "linear", "use_bias": false, "bias_initializer": {"class_name": "Zeros", "config": {}}, "bias_regularizer": null, "activity_regularizer": null, "bias_constraint": null, "depth_multiplier": 1, "depthwise_initializer": {"class_name": "GlorotUniform", "config": {"seed": null}}, "depthwise_regularizer": null, "depthwise_constraint": null}, "inbound_nodes": [[["conv1_relu", 0, 0, {}]]]}, {"name": "conv_dw_1_bn", "class_name": "BatchNormalization", "config": {"name": "conv_dw_1_bn", "trainable": true, "dtype": "float32", "axis": [3], "momentum": 0.99, "epsilon": 0.001, "center": true, "scale": true, "beta_initializer": {"class_name": "Zeros", "config": {}}, "gamma_initializer": {"class_name": "Ones", "config": {}}, "moving_mean_initializer": {"class_name": "Zeros", "config": {}}, "moving_variance_initializer": {"class_name": "Ones", "config": {}}, "beta_regularizer": null, "gamma_regularizer": null, "beta_constraint": null, "gamma_constraint": null}, "inbound_nodes": [[["conv_dw_1", 0, 0, {}]]]}, {"name": "conv_dw_1_relu", "class_name": "ReLU", "config": {"name": "conv_dw_1_relu", "trainable": true, "dtype": "float32", "max_value": 6.0, "negative_slope": 0.0, "threshold": 0.0}, "inbound_nodes": [[["conv_dw_1_bn", 0, 0, {}]]]}, {"name": "conv_pw_1", "class_name": "Conv2D", "config": {"name": "conv_pw_1", "trainable": true, "dtype": "float32", "filters": 64, "kernel_size": [1, 1], "strides": [1, 1], "padding": "same", "data_format": "channels_last", "dilation_rate": [1, 1], "activation": "linear", "use_bias": false, "kernel_initializer": {"class_name": "GlorotUniform", "config": {"seed": null}}, "bias_initializer": {"class_name": "Zeros", "config": {}}, "kernel_regularizer": null, "bias_regularizer": null, "activity_regularizer": null, "kernel_constraint": null, "bias_constraint": null}, "inbound_nodes": [[["conv_dw_1_relu", 0, 0, {}]]]}, {"name": "conv_pw_1_bn", "class_name": "BatchNormalization", "config": {"name": "conv_pw_1_bn", "trainable": true, "dtype": "float32", "axis": [3], "momentum": 0.99, "epsilon": 0.001, "center": true, "scale": true, "beta_initializer": {"class_name": "Zeros", "config": {}}, "gamma_initializer": {"class_name": "Ones", "config": {}}, "moving_mean_initializer": {"class_name": "Zeros", "config": {}}, "moving_variance_initializer": {"class_name": "Ones", "config": {}}, "beta_regularizer": null, "gamma_regularizer": null, "beta_constraint": null, "gamma_constraint": null}, "inbound_nodes": [[["conv_pw_1", 0, 0, {}]]]}, {"name": "conv_pw_1_relu", "class_name": "ReLU", "config": {"name": "conv_pw_1_relu", "trainable": true, "dtype": "float32", "max_value": 6.0, "negative_slope": 0.0, "threshold": 0.0}, "inbound_nodes": [[["conv_pw_1_bn", 0, 0, {}]]]}, {"name": "conv_pad_2", "class_name": "ZeroPadding2D", "config": {"name": "conv_pad_2", "trainable": true, "dtype": "float32", "padding": [[0, 1], [0, 1]], "data_format": "channels_last"}, "inbound_nodes": [[["conv_pw_1_relu", 0, 0, {}]]]}, {"name": "conv_dw_2", "class_name": "DepthwiseConv2D", "config": {"name": "conv_dw_2", "trainable": true, "dtype": "float32", "kernel_size": [3, 3], "strides": [2, 2], "padding": "valid", "data_format": "channels_last", "dilation_rate": [1, 1], "activation": "linear", "use_bias": false, "bias_initializer": {"class_name": "Zeros", "config": {}}, "bias_regularizer": null, "activity_regularizer": null, "bias_constraint": null, "depth_multiplier": 1, "depthwise_initializer": {"class_name": "GlorotUniform", "config": {"seed": null}}, "depthwise_regularizer": null, "depthwise_constraint": null}, "inbound_nodes": [[["conv_pad_2", 0, 0, {}]]]}, {"name": "conv_dw_2_bn", "class_name": "BatchNormalization", "config": {"name": "conv_dw_2_bn", "trainable": true, "dtype": "float32", "axis": [3], "momentum": 0.99, "epsilon": 0.001, "center": true, "scale": true, "beta_initializer": {"class_name": "Zeros", "config": {}}, "gamma_initializer": {"class_name": "Ones", "config": {}}, "moving_mean_initializer": {"class_name": "Zeros", "config": {}}, "moving_variance_initializer": {"class_name": "Ones", "config": {}}, "beta_regularizer": null, "gamma_regularizer": null, "beta_constraint": null, "gamma_constraint": null}, "inbound_nodes": [[["conv_dw_2", 0, 0, {}]]]}, {"name": "conv_dw_2_relu", "class_name": "ReLU", "config": {"name": "conv_dw_2_relu", "trainable": true, "dtype": "float32", "max_value": 6.0, "negative_slope": 0.0, "threshold": 0.0}, "inbound_nodes": [[["conv_dw_2_bn", 0, 0, {}]]]}, {"name": "conv_pw_2", "class_name": "Conv2D", "config": {"name": "conv_pw_2", "trainable": true, "dtype": "float32", "filters": 128, "kernel_size": [1, 1], "strides": [1, 1], "padding": "same", "data_format": "channels_last", "dilation_rate": [1, 1], "activation": "linear", "use_bias": false, "kernel_initializer": {"class_name": "GlorotUniform", "config": {"seed": null}}, "bias_initializer": {"class_name": "Zeros", "config": {}}, "kernel_regularizer": null, "bias_regularizer": null, "activity_regularizer": null, "kernel_constraint": null, "bias_constraint": null}, "inbound_nodes": [[["conv_dw_2_relu", 0, 0, {}]]]}, {"name": "conv_pw_2_bn", "class_name": "BatchNormalization", "config": {"name": "conv_pw_2_bn", "trainable": true, "dtype": "float32", "axis": [3], "momentum": 0.99, "epsilon": 0.001, "center": true, "scale": true, "beta_initializer": {"class_name": "Zeros", "config": {}}, "gamma_initializer": {"class_name": "Ones", "config": {}}, "moving_mean_initializer": {"class_name": "Zeros", "config": {}}, "moving_variance_initializer": {"class_name": "Ones", "config": {}}, "beta_regularizer": null, "gamma_regularizer": null, "beta_constraint": null, "gamma_constraint": null}, "inbound_nodes": [[["conv_pw_2", 0, 0, {}]]]}, {"name": "conv_pw_2_relu", "class_name": "ReLU", "config": {"name": "conv_pw_2_relu", "trainable": true, "dtype": "float32", "max_value": 6.0, "negative_slope": 0.0, "threshold": 0.0}, "inbound_nodes": [[["conv_pw_2_bn", 0, 0, {}]]]}, {"name": "conv_dw_3", "class_name": "DepthwiseConv2D", "config": {"name": "conv_dw_3", "trainable": true, "dtype": "float32", "kernel_size": [3, 3], "strides": [1, 1], "padding": "same", "data_format": "channels_last", "dilation_rate": [1, 1], "activation": "linear", "use_bias": false, "bias_initializer": {"class_name": "Zeros", "config": {}}, "bias_regularizer": null, "activity_regularizer": null, "bias_constraint": null, "depth_multiplier": 1, "depthwise_initializer": {"class_name": "GlorotUniform", "config": {"seed": null}}, "depthwise_regularizer": null, "depthwise_constraint": null}, "inbound_nodes": [[["conv_pw_2_relu", 0, 0, {}]]]}, {"name": "conv_dw_3_bn", "class_name": "BatchNormalization", "config": {"name": "conv_dw_3_bn", "trainable": true, "dtype": "float32", "axis": [3], "momentum": 0.99, "epsilon": 0.001, "center": true, "scale": true, "beta_initializer": {"class_name": "Zeros", "config": {}}, "gamma_initializer": {"class_name": "Ones", "config": {}}, "moving_mean_initializer": {"class_name": "Zeros", "config": {}}, "moving_variance_initializer": {"class_name": "Ones", "config": {}}, "beta_regularizer": null, "gamma_regularizer": null, "beta_constraint": null, "gamma_constraint": null}, "inbound_nodes": [[["conv_dw_3", 0, 0, {}]]]}, {"name": "conv_dw_3_relu", "class_name": "ReLU", "config": {"name": "conv_dw_3_relu", "trainable": true, "dtype": "float32", "max_value": 6.0, "negative_slope": 0.0, "threshold": 0.0}, "inbound_nodes": [[["conv_dw_3_bn", 0, 0, {}]]]}, {"name": "conv_pw_3", "class_name": "Conv2D", "config": {"name": "conv_pw_3", "trainable": true, "dtype": "float32", "filters": 128, "kernel_size": [1, 1], "strides": [1, 1], "padding": "same", "data_format": "channels_last", "dilation_rate": [1, 1], "activation": "linear", "use_bias": false, "kernel_initializer": {"class_name": "GlorotUniform", "config": {"seed": null}}, "bias_initializer": {"class_name": "Zeros", "config": {}}, "kernel_regularizer": null, "bias_regularizer": null, "activity_regularizer": null, "kernel_constraint": null, "bias_constraint": null}, "inbound_nodes": [[["conv_dw_3_relu", 0, 0, {}]]]}, {"name": "conv_pw_3_bn", "class_name": "BatchNormalization", "config": {"name": "conv_pw_3_bn", "trainable": true, "dtype": "float32", "axis": [3], "momentum": 0.99, "epsilon": 0.001, "center": true, "scale": true, "beta_initializer": {"class_name": "Zeros", "config": {}}, "gamma_initializer": {"class_name": "Ones", "config": {}}, "moving_mean_initializer": {"class_name": "Zeros", "config": {}}, "moving_variance_initializer": {"class_name": "Ones", "config": {}}, "beta_regularizer": null, "gamma_regularizer": null, "beta_constraint": null, "gamma_constraint": null}, "inbound_nodes": [[["conv_pw_3", 0, 0, {}]]]}, {"name": "conv_pw_3_relu", "class_name": "ReLU", "config": {"name": "conv_pw_3_relu", "trainable": true, "dtype": "float32", "max_value": 6.0, "negative_slope": 0.0, "threshold": 0.0}, "inbound_nodes": [[["conv_pw_3_bn", 0, 0, {}]]]}, {"name": "conv_dw_4", "class_name": "DepthwiseConv2D", "config": {"name": "conv_dw_4", "trainable": true, "dtype": "float32", "kernel_size": [3, 3], "strides": [2, 2], "padding": "same", "data_format": "channels_last", "dilation_rate": [1, 1], "activation": "linear", "use_bias": false, "bias_initializer": {"class_name": "Zeros", "config": {}}, "bias_regularizer": null, "activity_regularizer": null, "bias_constraint": null, "depth_multiplier": 1, "depthwise_initializer": {"class_name": "GlorotUniform", "config": {"seed": null}}, "depthwise_regularizer": null, "depthwise_constraint": null}, "inbound_nodes": [[["conv_pw_3_relu", 0, 0, {}]]]}, {"name": "conv_dw_4_bn", "class_name": "BatchNormalization", "config": {"name": "conv_dw_4_bn", "trainable": true, "dtype": "float32", "axis": [3], "momentum": 0.99, "epsilon": 0.001, "center": true, "scale": true, "beta_initializer": {"class_name": "Zeros", "config": {}}, "gamma_initializer": {"class_name": "Ones", "config": {}}, "moving_mean_initializer": {"class_name": "Zeros", "config": {}}, "moving_variance_initializer": {"class_name": "Ones", "config": {}}, "beta_regularizer": null, "gamma_regularizer": null, "beta_constraint": null, "gamma_constraint": null}, "inbound_nodes": [[["conv_dw_4", 0, 0, {}]]]}, {"name": "conv_dw_4_relu", "class_name": "ReLU", "config": {"name": "conv_dw_4_relu", "trainable": true, "dtype": "float32", "max_value": 6.0, "negative_slope": 0.0, "threshold": 0.0}, "inbound_nodes": [[["conv_dw_4_bn", 0, 0, {}]]]}, {"name": "conv_pw_4", "class_name": "Conv2D", "config": {"name": "conv_pw_4", "trainable": true, "dtype": "float32", "filters": 256, "kernel_size": [1, 1], "strides": [1, 1], "padding": "same", "data_format": "channels_last", "dilation_rate": [1, 1], "activation": "linear", "use_bias": false, "kernel_initializer": {"class_name": "GlorotUniform", "config": {"seed": null}}, "bias_initializer": {"class_name": "Zeros", "config": {}}, "kernel_regularizer": null, "bias_regularizer": null, "activity_regularizer": null, "kernel_constraint": null, "bias_constraint": null}, "inbound_nodes": [[["conv_dw_4_relu", 0, 0, {}]]]}, {"name": "conv_pw_4_bn", "class_name": "BatchNormalization", "config": {"name": "conv_pw_4_bn", "trainable": true, "dtype": "float32", "axis": [3], "momentum": 0.99, "epsilon": 0.001, "center": true, "scale": true, "beta_initializer": {"class_name": "Zeros", "config": {}}, "gamma_initializer": {"class_name": "Ones", "config": {}}, "moving_mean_initializer": {"class_name": "Zeros", "config": {}}, "moving_variance_initializer": {"class_name": "Ones", "config": {}}, "beta_regularizer": null, "gamma_regularizer": null, "beta_constraint": null, "gamma_constraint": null}, "inbound_nodes": [[["conv_pw_4", 0, 0, {}]]]}, {"name": "conv_pw_4_relu", "class_name": "ReLU", "config": {"name": "conv_pw_4_relu", "trainable": true, "dtype": "float32", "max_value": 6.0, "negative_slope": 0.0, "threshold": 0.0}, "inbound_nodes": [[["conv_pw_4_bn", 0, 0, {}]]]}, {"name": "conv_dw_5", "class_name": "DepthwiseConv2D", "config": {"name": "conv_dw_5", "trainable": true, "dtype": "float32", "kernel_size": [3, 3], "strides": [1, 1], "padding": "same", "data_format": "channels_last", "dilation_rate": [1, 1], "activation": "linear", "use_bias": false, "bias_initializer": {"class_name": "Zeros", "config": {}}, "bias_regularizer": null, "activity_regularizer": null, "bias_constraint": null, "depth_multiplier": 1, "depthwise_initializer": {"class_name": "GlorotUniform", "config": {"seed": null}}, "depthwise_regularizer": null, "depthwise_constraint": null}, "inbound_nodes": [[["conv_pw_4_relu", 0, 0, {}]]]}, {"name": "conv_dw_5_bn", "class_name": "BatchNormalization", "config": {"name": "conv_dw_5_bn", "trainable": true, "dtype": "float32", "axis": [3], "momentum": 0.99, "epsilon": 0.001, "center": true, "scale": true, "beta_initializer": {"class_name": "Zeros", "config": {}}, "gamma_initializer": {"class_name": "Ones", "config": {}}, "moving_mean_initializer": {"class_name": "Zeros", "config": {}}, "moving_variance_initializer": {"class_name": "Ones", "config": {}}, "beta_regularizer": null, "gamma_regularizer": null, "beta_constraint": null, "gamma_constraint": null}, "inbound_nodes": [[["conv_dw_5", 0, 0, {}]]]}, {"name": "conv_dw_5_relu", "class_name": "ReLU", "config": {"name": "conv_dw_5_relu", "trainable": true, "dtype": "float32", "max_value": 6.0, "negative_slope": 0.0, "threshold": 0.0}, "inbound_nodes": [[["conv_dw_5_bn", 0, 0, {}]]]}, {"name": "conv_pw_5", "class_name": "Conv2D", "config": {"name": "conv_pw_5", "trainable": true, "dtype": "float32", "filters": 256, "kernel_size": [1, 1], "strides": [1, 1], "padding": "same", "data_format": "channels_last", "dilation_rate": [1, 1], "activation": "linear", "use_bias": false, "kernel_initializer": {"class_name": "GlorotUniform", "config": {"seed": null}}, "bias_initializer": {"class_name": "Zeros", "config": {}}, "kernel_regularizer": null, "bias_regularizer": null, "activity_regularizer": null, "kernel_constraint": null, "bias_constraint": null}, "inbound_nodes": [[["conv_dw_5_relu", 0, 0, {}]]]}, {"name": "conv_pw_5_bn", "class_name": "BatchNormalization", "config": {"name": "conv_pw_5_bn", "trainable": true, "dtype": "float32", "axis": [3], "momentum": 0.99, "epsilon": 0.001, "center": true, "scale": true, "beta_initializer": {"class_name": "Zeros", "config": {}}, "gamma_initializer": {"class_name": "Ones", "config": {}}, "moving_mean_initializer": {"class_name": "Zeros", "config": {}}, "moving_variance_initializer": {"class_name": "Ones", "config": {}}, "beta_regularizer": null, "gamma_regularizer": null, "beta_constraint": null, "gamma_constraint": null}, "inbound_nodes": [[["conv_pw_5", 0, 0, {}]]]}, {"name": "conv_pw_5_relu", "class_name": "ReLU", "config": {"name": "conv_pw_5_relu", "trainable": true, "dtype": "float32", "max_value": 6.0, "negative_slope": 0.0, "threshold": 0.0}, "inbound_nodes": [[["conv_pw_5_bn", 0, 0, {}]]]}, {"name": "conv_pad_6", "class_name": "ZeroPadding2D", "config": {"name": "conv_pad_6", "trainable": true, "dtype": "float32", "padding": [[0, 1], [0, 1]], "data_format": "channels_last"}, "inbound_nodes": [[["conv_pw_5_relu", 0, 0, {}]]]}, {"name": "conv_dw_6", "class_name": "DepthwiseConv2D", "config": {"name": "conv_dw_6", "trainable": true, "dtype": "float32", "kernel_size": [3, 3], "strides": [2, 2], "padding": "valid", "data_format": "channels_last", "dilation_rate": [1, 1], "activation": "linear", "use_bias": false, "bias_initializer": {"class_name": "Zeros", "config": {}}, "bias_regularizer": null, "activity_regularizer": null, "bias_constraint": null, "depth_multiplier": 1, "depthwise_initializer": {"class_name": "GlorotUniform", "config": {"seed": null}}, "depthwise_regularizer": null, "depthwise_constraint": null}, "inbound_nodes": [[["conv_pad_6", 0, 0, {}]]]}, {"name": "conv_dw_6_bn", "class_name": "BatchNormalization", "config": {"name": "conv_dw_6_bn", "trainable": true, "dtype": "float32", "axis": [3], "momentum": 0.99, "epsilon": 0.001, "center": true, "scale": true, "beta_initializer": {"class_name": "Zeros", "config": {}}, "gamma_initializer": {"class_name": "Ones", "config": {}}, "moving_mean_initializer": {"class_name": "Zeros", "config": {}}, "moving_variance_initializer": {"class_name": "Ones", "config": {}}, "beta_regularizer": null, "gamma_regularizer": null, "beta_constraint": null, "gamma_constraint": null}, "inbound_nodes": [[["conv_dw_6", 0, 0, {}]]]}, {"name": "conv_dw_6_relu", "class_name": "ReLU", "config": {"name": "conv_dw_6_relu", "trainable": true, "dtype": "float32", "max_value": 6.0, "negative_slope": 0.0, "threshold": 0.0}, "inbound_nodes": [[["conv_dw_6_bn", 0, 0, {}]]]}, {"name": "conv_pw_6", "class_name": "Conv2D", "config": {"name": "conv_pw_6", "trainable": true, "dtype": "float32", "filters": 512, "kernel_size": [1, 1], "strides": [1, 1], "padding": "same", "data_format": "channels_last", "dilation_rate": [1, 1], "activation": "linear", "use_bias": false, "kernel_initializer": {"class_name": "GlorotUniform", "config": {"seed": null}}, "bias_initializer": {"class_name": "Zeros", "config": {}}, "kernel_regularizer": null, "bias_regularizer": null, "activity_regularizer": null, "kernel_constraint": null, "bias_constraint": null}, "inbound_nodes": [[["conv_dw_6_relu", 0, 0, {}]]]}, {"name": "conv_pw_6_bn", "class_name": "BatchNormalization", "config": {"name": "conv_pw_6_bn", "trainable": true, "dtype": "float32", "axis": [3], "momentum": 0.99, "epsilon": 0.001, "center": true, "scale": true, "beta_initializer": {"class_name": "Zeros", "config": {}}, "gamma_initializer": {"class_name": "Ones", "config": {}}, "moving_mean_initializer": {"class_name": "Zeros", "config": {}}, "moving_variance_initializer": {"class_name": "Ones", "config": {}}, "beta_regularizer": null, "gamma_regularizer": null, "beta_constraint": null, "gamma_constraint": null}, "inbound_nodes": [[["conv_pw_6", 0, 0, {}]]]}, {"name": "conv_pw_6_relu", "class_name": "ReLU", "config": {"name": "conv_pw_6_relu", "trainable": true, "dtype": "float32", "max_value": 6.0, "negative_slope": 0.0, "threshold": 0.0}, "inbound_nodes": [[["conv_pw_6_bn", 0, 0, {}]]]}, {"name": "conv_dw_7", "class_name": "DepthwiseConv2D", "config": {"name": "conv_dw_7", "trainable": true, "dtype": "float32", "kernel_size": [3, 3], "strides": [1, 1], "padding": "same", "data_format": "channels_last", "dilation_rate": [1, 1], "activation": "linear", "use_bias": false, "bias_initializer": {"class_name": "Zeros", "config": {}}, "bias_regularizer": null, "activity_regularizer": null, "bias_constraint": null, "depth_multiplier": 1, "depthwise_initializer": {"class_name": "GlorotUniform", "config": {"seed": null}}, "depthwise_regularizer": null, "depthwise_constraint": null}, "inbound_nodes": [[["conv_pw_6_relu", 0, 0, {}]]]}, {"name": "conv_dw_7_bn", "class_name": "BatchNormalization", "config": {"name": "conv_dw_7_bn", "trainable": true, "dtype": "float32", "axis": [3], "momentum": 0.99, "epsilon": 0.001, "center": true, "scale": true, "beta_initializer": {"class_name": "Zeros", "config": {}}, "gamma_initializer": {"class_name": "Ones", "config": {}}, "moving_mean_initializer": {"class_name": "Zeros", "config": {}}, "moving_variance_initializer": {"class_name": "Ones", "config": {}}, "beta_regularizer": null, "gamma_regularizer": null, "beta_constraint": null, "gamma_constraint": null}, "inbound_nodes": [[["conv_dw_7", 0, 0, {}]]]}, {"name": "conv_dw_7_relu", "class_name": "ReLU", "config": {"name": "conv_dw_7_relu", "trainable": true, "dtype": "float32", "max_value": 6.0, "negative_slope": 0.0, "threshold": 0.0}, "inbound_nodes": [[["conv_dw_7_bn", 0, 0, {}]]]}, {"name": "conv_pw_7", "class_name": "Conv2D", "config": {"name": "conv_pw_7", "trainable": true, "dtype": "float32", "filters": 512, "kernel_size": [1, 1], "strides": [1, 1], "padding": "same", "data_format": "channels_last", "dilation_rate": [1, 1], "activation": "linear", "use_bias": false, "kernel_initializer": {"class_name": "GlorotUniform", "config": {"seed": null}}, "bias_initializer": {"class_name": "Zeros", "config": {}}, "kernel_regularizer": null, "bias_regularizer": null, "activity_regularizer": null, "kernel_constraint": null, "bias_constraint": null}, "inbound_nodes": [[["conv_dw_7_relu", 0, 0, {}]]]}, {"name": "conv_pw_7_bn", "class_name": "BatchNormalization", "config": {"name": "conv_pw_7_bn", "trainable": true, "dtype": "float32", "axis": [3], "momentum": 0.99, "epsilon": 0.001, "center": true, "scale": true, "beta_initializer": {"class_name": "Zeros", "config": {}}, "gamma_initializer": {"class_name": "Ones", "config": {}}, "moving_mean_initializer": {"class_name": "Zeros", "config": {}}, "moving_variance_initializer": {"class_name": "Ones", "config": {}}, "beta_regularizer": null, "gamma_regularizer": null, "beta_constraint": null, "gamma_constraint": null}, "inbound_nodes": [[["conv_pw_7", 0, 0, {}]]]}, {"name": "conv_pw_7_relu", "class_name": "ReLU", "config": {"name": "conv_pw_7_relu", "trainable": true, "dtype": "float32", "max_value": 6.0, "negative_slope": 0.0, "threshold": 0.0}, "inbound_nodes": [[["conv_pw_7_bn", 0, 0, {}]]]}, {"name": "conv_dw_8", "class_name": "DepthwiseConv2D", "config": {"name": "conv_dw_8", "trainable": true, "dtype": "float32", "kernel_size": [3, 3], "strides": [1, 1], "padding": "same", "data_format": "channels_last", "dilation_rate": [1, 1], "activation": "linear", "use_bias": false, "bias_initializer": {"class_name": "Zeros", "config": {}}, "bias_regularizer": null, "activity_regularizer": null, "bias_constraint": null, "depth_multiplier": 1, "depthwise_initializer": {"class_name": "GlorotUniform", "config": {"seed": null}}, "depthwise_regularizer": null, "depthwise_constraint": null}, "inbound_nodes": [[["conv_pw_7_relu", 0, 0, {}]]]}, {"name": "conv_dw_8_bn", "class_name": "BatchNormalization", "config": {"name": "conv_dw_8_bn", "trainable": true, "dtype": "float32", "axis": [3], "momentum": 0.99, "epsilon": 0.001, "center": true, "scale": true, "beta_initializer": {"class_name": "Zeros", "config": {}}, "gamma_initializer": {"class_name": "Ones", "config": {}}, "moving_mean_initializer": {"class_name": "Zeros", "config": {}}, "moving_variance_initializer": {"class_name": "Ones", "config": {}}, "beta_regularizer": null, "gamma_regularizer": null, "beta_constraint": null, "gamma_constraint": null}, "inbound_nodes": [[["conv_dw_8", 0, 0, {}]]]}, {"name": "conv_dw_8_relu", "class_name": "ReLU", "config": {"name": "conv_dw_8_relu", "trainable": true, "dtype": "float32", "max_value": 6.0, "negative_slope": 0.0, "threshold": 0.0}, "inbound_nodes": [[["conv_dw_8_bn", 0, 0, {}]]]}, {"name": "conv_pw_8", "class_name": "Conv2D", "config": {"name": "conv_pw_8", "trainable": true, "dtype": "float32", "filters": 512, "kernel_size": [1, 1], "strides": [1, 1], "padding": "same", "data_format": "channels_last", "dilation_rate": [1, 1], "activation": "linear", "use_bias": false, "kernel_initializer": {"class_name": "GlorotUniform", "config": {"seed": null}}, "bias_initializer": {"class_name": "Zeros", "config": {}}, "kernel_regularizer": null, "bias_regularizer": null, "activity_regularizer": null, "kernel_constraint": null, "bias_constraint": null}, "inbound_nodes": [[["conv_dw_8_relu", 0, 0, {}]]]}, {"name": "conv_pw_8_bn", "class_name": "BatchNormalization", "config": {"name": "conv_pw_8_bn", "trainable": true, "dtype": "float32", "axis": [3], "momentum": 0.99, "epsilon": 0.001, "center": true, "scale": true, "beta_initializer": {"class_name": "Zeros", "config": {}}, "gamma_initializer": {"class_name": "Ones", "config": {}}, "moving_mean_initializer": {"class_name": "Zeros", "config": {}}, "moving_variance_initializer": {"class_name": "Ones", "config": {}}, "beta_regularizer": null, "gamma_regularizer": null, "beta_constraint": null, "gamma_constraint": null}, "inbound_nodes": [[["conv_pw_8", 0, 0, {}]]]}, {"name": "conv_pw_8_relu", "class_name": "ReLU", "config": {"name": "conv_pw_8_relu", "trainable": true, "dtype": "float32", "max_value": 6.0, "negative_slope": 0.0, "threshold": 0.0}, "inbound_nodes": [[["conv_pw_8_bn", 0, 0, {}]]]}, {"name": "conv_dw_9", "class_name": "DepthwiseConv2D", "config": {"name": "conv_dw_9", "trainable": true, "dtype": "float32", "kernel_size": [3, 3], "strides": [1, 1], "padding": "same", "data_format": "channels_last", "dilation_rate": [1, 1], "activation": "linear", "use_bias": false, "bias_initializer": {"class_name": "Zeros", "config": {}}, "bias_regularizer": null, "activity_regularizer": null, "bias_constraint": null, "depth_multiplier": 1, "depthwise_initializer": {"class_name": "GlorotUniform", "config": {"seed": null}}, "depthwise_regularizer": null, "depthwise_constraint": null}, "inbound_nodes": [[["conv_pw_8_relu", 0, 0, {}]]]}, {"name": "conv_dw_9_bn", "class_name": "BatchNormalization", "config": {"name": "conv_dw_9_bn", "trainable": true, "dtype": "float32", "axis": [3], "momentum": 0.99, "epsilon": 0.001, "center": true, "scale": true, "beta_initializer": {"class_name": "Zeros", "config": {}}, "gamma_initializer": {"class_name": "Ones", "config": {}}, "moving_mean_initializer": {"class_name": "Zeros", "config": {}}, "moving_variance_initializer": {"class_name": "Ones", "config": {}}, "beta_regularizer": null, "gamma_regularizer": null, "beta_constraint": null, "gamma_constraint": null}, "inbound_nodes": [[["conv_dw_9", 0, 0, {}]]]}, {"name": "conv_dw_9_relu", "class_name": "ReLU", "config": {"name": "conv_dw_9_relu", "trainable": true, "dtype": "float32", "max_value": 6.0, "negative_slope": 0.0, "threshold": 0.0}, "inbound_nodes": [[["conv_dw_9_bn", 0, 0, {}]]]}, {"name": "conv_pw_9", "class_name": "Conv2D", "config": {"name": "conv_pw_9", "trainable": true, "dtype": "float32", "filters": 512, "kernel_size": [1, 1], "strides": [1, 1], "padding": "same", "data_format": "channels_last", "dilation_rate": [1, 1], "activation": "linear", "use_bias": false, "kernel_initializer": {"class_name": "GlorotUniform", "config": {"seed": null}}, "bias_initializer": {"class_name": "Zeros", "config": {}}, "kernel_regularizer": null, "bias_regularizer": null, "activity_regularizer": null, "kernel_constraint": null, "bias_constraint": null}, "inbound_nodes": [[["conv_dw_9_relu", 0, 0, {}]]]}, {"name": "conv_pw_9_bn", "class_name": "BatchNormalization", "config": {"name": "conv_pw_9_bn", "trainable": true, "dtype": "float32", "axis": [3], "momentum": 0.99, "epsilon": 0.001, "center": true, "scale": true, "beta_initializer": {"class_name": "Zeros", "config": {}}, "gamma_initializer": {"class_name": "Ones", "config": {}}, "moving_mean_initializer": {"class_name": "Zeros", "config": {}}, "moving_variance_initializer": {"class_name": "Ones", "config": {}}, "beta_regularizer": null, "gamma_regularizer": null, "beta_constraint": null, "gamma_constraint": null}, "inbound_nodes": [[["conv_pw_9", 0, 0, {}]]]}, {"name": "conv_pw_9_relu", "class_name": "ReLU", "config": {"name": "conv_pw_9_relu", "trainable": true, "dtype": "float32", "max_value": 6.0, "negative_slope": 0.0, "threshold": 0.0}, "inbound_nodes": [[["conv_pw_9_bn", 0, 0, {}]]]}, {"name": "conv_dw_10", "class_name": "DepthwiseConv2D", "config": {"name": "conv_dw_10", "trainable": true, "dtype": "float32", "kernel_size": [3, 3], "strides": [1, 1], "padding": "same", "data_format": "channels_last", "dilation_rate": [1, 1], "activation": "linear", "use_bias": false, "bias_initializer": {"class_name": "Zeros", "config": {}}, "bias_regularizer": null, "activity_regularizer": null, "bias_constraint": null, "depth_multiplier": 1, "depthwise_initializer": {"class_name": "GlorotUniform", "config": {"seed": null}}, "depthwise_regularizer": null, "depthwise_constraint": null}, "inbound_nodes": [[["conv_pw_9_relu", 0, 0, {}]]]}, {"name": "conv_dw_10_bn", "class_name": "BatchNormalization", "config": {"name": "conv_dw_10_bn", "trainable": true, "dtype": "float32", "axis": [3], "momentum": 0.99, "epsilon": 0.001, "center": true, "scale": true, "beta_initializer": {"class_name": "Zeros", "config": {}}, "gamma_initializer": {"class_name": "Ones", "config": {}}, "moving_mean_initializer": {"class_name": "Zeros", "config": {}}, "moving_variance_initializer": {"class_name": "Ones", "config": {}}, "beta_regularizer": null, "gamma_regularizer": null, "beta_constraint": null, "gamma_constraint": null}, "inbound_nodes": [[["conv_dw_10", 0, 0, {}]]]}, {"name": "conv_dw_10_relu", "class_name": "ReLU", "config": {"name": "conv_dw_10_relu", "trainable": true, "dtype": "float32", "max_value": 6.0, "negative_slope": 0.0, "threshold": 0.0}, "inbound_nodes": [[["conv_dw_10_bn", 0, 0, {}]]]}, {"name": "conv_pw_10", "class_name": "Conv2D", "config": {"name": "conv_pw_10", "trainable": true, "dtype": "float32", "filters": 512, "kernel_size": [1, 1], "strides": [1, 1], "padding": "same", "data_format": "channels_last", "dilation_rate": [1, 1], "activation": "linear", "use_bias": false, "kernel_initializer": {"class_name": "GlorotUniform", "config": {"seed": null}}, "bias_initializer": {"class_name": "Zeros", "config": {}}, "kernel_regularizer": null, "bias_regularizer": null, "activity_regularizer": null, "kernel_constraint": null, "bias_constraint": null}, "inbound_nodes": [[["conv_dw_10_relu", 0, 0, {}]]]}, {"name": "conv_pw_10_bn", "class_name": "BatchNormalization", "config": {"name": "conv_pw_10_bn", "trainable": true, "dtype": "float32", "axis": [3], "momentum": 0.99, "epsilon": 0.001, "center": true, "scale": true, "beta_initializer": {"class_name": "Zeros", "config": {}}, "gamma_initializer": {"class_name": "Ones", "config": {}}, "moving_mean_initializer": {"class_name": "Zeros", "config": {}}, "moving_variance_initializer": {"class_name": "Ones", "config": {}}, "beta_regularizer": null, "gamma_regularizer": null, "beta_constraint": null, "gamma_constraint": null}, "inbound_nodes": [[["conv_pw_10", 0, 0, {}]]]}, {"name": "conv_pw_10_relu", "class_name": "ReLU", "config": {"name": "conv_pw_10_relu", "trainable": true, "dtype": "float32", "max_value": 6.0, "negative_slope": 0.0, "threshold": 0.0}, "inbound_nodes": [[["conv_pw_10_bn", 0, 0, {}]]]}, {"name": "conv_dw_11", "class_name": "DepthwiseConv2D", "config": {"name": "conv_dw_11", "trainable": true, "dtype": "float32", "kernel_size": [3, 3], "strides": [1, 1], "padding": "same", "data_format": "channels_last", "dilation_rate": [1, 1], "activation": "linear", "use_bias": false, "bias_initializer": {"class_name": "Zeros", "config": {}}, "bias_regularizer": null, "activity_regularizer": null, "bias_constraint": null, "depth_multiplier": 1, "depthwise_initializer": {"class_name": "GlorotUniform", "config": {"seed": null}}, "depthwise_regularizer": null, "depthwise_constraint": null}, "inbound_nodes": [[["conv_pw_10_relu", 0, 0, {}]]]}, {"name": "conv_dw_11_bn", "class_name": "BatchNormalization", "config": {"name": "conv_dw_11_bn", "trainable": true, "dtype": "float32", "axis": [3], "momentum": 0.99, "epsilon": 0.001, "center": true, "scale": true, "beta_initializer": {"class_name": "Zeros", "config": {}}, "gamma_initializer": {"class_name": "Ones", "config": {}}, "moving_mean_initializer": {"class_name": "Zeros", "config": {}}, "moving_variance_initializer": {"class_name": "Ones", "config": {}}, "beta_regularizer": null, "gamma_regularizer": null, "beta_constraint": null, "gamma_constraint": null}, "inbound_nodes": [[["conv_dw_11", 0, 0, {}]]]}, {"name": "conv_dw_11_relu", "class_name": "ReLU", "config": {"name": "conv_dw_11_relu", "trainable": true, "dtype": "float32", "max_value": 6.0, "negative_slope": 0.0, "threshold": 0.0}, "inbound_nodes": [[["conv_dw_11_bn", 0, 0, {}]]]}, {"name": "conv_pw_11", "class_name": "Conv2D", "config": {"name": "conv_pw_11", "trainable": true, "dtype": "float32", "filters": 512, "kernel_size": [1, 1], "strides": [1, 1], "padding": "same", "data_format": "channels_last", "dilation_rate": [1, 1], "activation": "linear", "use_bias": false, "kernel_initializer": {"class_name": "GlorotUniform", "config": {"seed": null}}, "bias_initializer": {"class_name": "Zeros", "config": {}}, "kernel_regularizer": null, "bias_regularizer": null, "activity_regularizer": null, "kernel_constraint": null, "bias_constraint": null}, "inbound_nodes": [[["conv_dw_11_relu", 0, 0, {}]]]}, {"name": "conv_pw_11_bn", "class_name": "BatchNormalization", "config": {"name": "conv_pw_11_bn", "trainable": true, "dtype": "float32", "axis": [3], "momentum": 0.99, "epsilon": 0.001, "center": true, "scale": true, "beta_initializer": {"class_name": "Zeros", "config": {}}, "gamma_initializer": {"class_name": "Ones", "config": {}}, "moving_mean_initializer": {"class_name": "Zeros", "config": {}}, "moving_variance_initializer": {"class_name": "Ones", "config": {}}, "beta_regularizer": null, "gamma_regularizer": null, "beta_constraint": null, "gamma_constraint": null}, "inbound_nodes": [[["conv_pw_11", 0, 0, {}]]]}, {"name": "conv_pw_11_relu", "class_name": "ReLU", "config": {"name": "conv_pw_11_relu", "trainable": true, "dtype": "float32", "max_value": 6.0, "negative_slope": 0.0, "threshold": 0.0}, "inbound_nodes": [[["conv_pw_11_bn", 0, 0, {}]]]}, {"name": "conv_dw_12", "class_name": "DepthwiseConv2D", "config": {"name": "conv_dw_12", "trainable": true, "dtype": "float32", "kernel_size": [3, 3], "strides": [2, 2], "padding": "same", "data_format": "channels_last", "dilation_rate": [1, 1], "activation": "linear", "use_bias": false, "bias_initializer": {"class_name": "Zeros", "config": {}}, "bias_regularizer": null, "activity_regularizer": null, "bias_constraint": null, "depth_multiplier": 1, "depthwise_initializer": {"class_name": "GlorotUniform", "config": {"seed": null}}, "depthwise_regularizer": null, "depthwise_constraint": null}, "inbound_nodes": [[["conv_pw_11_relu", 0, 0, {}]]]}, {"name": "conv_dw_12_bn", "class_name": "BatchNormalization", "config": {"name": "conv_dw_12_bn", "trainable": true, "dtype": "float32", "axis": [3], "momentum": 0.99, "epsilon": 0.001, "center": true, "scale": true, "beta_initializer": {"class_name": "Zeros", "config": {}}, "gamma_initializer": {"class_name": "Ones", "config": {}}, "moving_mean_initializer": {"class_name": "Zeros", "config": {}}, "moving_variance_initializer": {"class_name": "Ones", "config": {}}, "beta_regularizer": null, "gamma_regularizer": null, "beta_constraint": null, "gamma_constraint": null}, "inbound_nodes": [[["conv_dw_12", 0, 0, {}]]]}, {"name": "conv_dw_12_relu", "class_name": "ReLU", "config": {"name": "conv_dw_12_relu", "trainable": true, "dtype": "float32", "max_value": 6.0, "negative_slope": 0.0, "threshold": 0.0}, "inbound_nodes": [[["conv_dw_12_bn", 0, 0, {}]]]}, {"name": "conv_pw_12", "class_name": "Conv2D", "config": {"name": "conv_pw_12", "trainable": true, "dtype": "float32", "filters": 1024, "kernel_size": [1, 1], "strides": [1, 1], "padding": "same", "data_format": "channels_last", "dilation_rate": [1, 1], "activation": "linear", "use_bias": false, "kernel_initializer": {"class_name": "GlorotUniform", "config": {"seed": null}}, "bias_initializer": {"class_name": "Zeros", "config": {}}, "kernel_regularizer": null, "bias_regularizer": null, "activity_regularizer": null, "kernel_constraint": null, "bias_constraint": null}, "inbound_nodes": [[["conv_dw_12_relu", 0, 0, {}]]]}, {"name": "conv_pw_12_bn", "class_name": "BatchNormalization", "config": {"name": "conv_pw_12_bn", "trainable": true, "dtype": "float32", "axis": [3], "momentum": 0.99, "epsilon": 0.001, "center": true, "scale": true, "beta_initializer": {"class_name": "Zeros", "config": {}}, "gamma_initializer": {"class_name": "Ones", "config": {}}, "moving_mean_initializer": {"class_name": "Zeros", "config": {}}, "moving_variance_initializer": {"class_name": "Ones", "config": {}}, "beta_regularizer": null, "gamma_regularizer": null, "beta_constraint": null, "gamma_constraint": null}, "inbound_nodes": [[["conv_pw_12", 0, 0, {}]]]}, {"name": "conv_pw_12_relu", "class_name": "ReLU", "config": {"name": "conv_pw_12_relu", "trainable": true, "dtype": "float32", "max_value": 6.0, "negative_slope": 0.0, "threshold": 0.0}, "inbound_nodes": [[["conv_pw_12_bn", 0, 0, {}]]]}, {"name": "conv_dw_13", "class_name": "DepthwiseConv2D", "config": {"name": "conv_dw_13", "trainable": true, "dtype": "float32", "kernel_size": [3, 3], "strides": [1, 1], "padding": "same", "data_format": "channels_last", "dilation_rate": [1, 1], "activation": "linear", "use_bias": false, "bias_initializer": {"class_name": "Zeros", "config": {}}, "bias_regularizer": null, "activity_regularizer": null, "bias_constraint": null, "depth_multiplier": 1, "depthwise_initializer": {"class_name": "GlorotUniform", "config": {"seed": null}}, "depthwise_regularizer": null, "depthwise_constraint": null}, "inbound_nodes": [[["conv_pw_12_relu", 0, 0, {}]]]}, {"name": "conv_dw_13_bn", "class_name": "BatchNormalization", "config": {"name": "conv_dw_13_bn", "trainable": true, "dtype": "float32", "axis": [3], "momentum": 0.99, "epsilon": 0.001, "center": true, "scale": true, "beta_initializer": {"class_name": "Zeros", "config": {}}, "gamma_initializer": {"class_name": "Ones", "config": {}}, "moving_mean_initializer": {"class_name": "Zeros", "config": {}}, "moving_variance_initializer": {"class_name": "Ones", "config": {}}, "beta_regularizer": null, "gamma_regularizer": null, "beta_constraint": null, "gamma_constraint": null}, "inbound_nodes": [[["conv_dw_13", 0, 0, {}]]]}, {"name": "conv_dw_13_relu", "class_name": "ReLU", "config": {"name": "conv_dw_13_relu", "trainable": true, "dtype": "float32", "max_value": 6.0, "negative_slope": 0.0, "threshold": 0.0}, "inbound_nodes": [[["conv_dw_13_bn", 0, 0, {}]]]}, {"name": "conv_pw_13", "class_name": "Conv2D", "config": {"name": "conv_pw_13", "trainable": true, "dtype": "float32", "filters": 1024, "kernel_size": [1, 1], "strides": [1, 1], "padding": "same", "data_format": "channels_last", "dilation_rate": [1, 1], "activation": "linear", "use_bias": false, "kernel_initializer": {"class_name": "GlorotUniform", "config": {"seed": null}}, "bias_initializer": {"class_name": "Zeros", "config": {}}, "kernel_regularizer": null, "bias_regularizer": null, "activity_regularizer": null, "kernel_constraint": null, "bias_constraint": null}, "inbound_nodes": [[["conv_dw_13_relu", 0, 0, {}]]]}, {"name": "conv_pw_13_bn", "class_name": "BatchNormalization", "config": {"name": "conv_pw_13_bn", "trainable": true, "dtype": "float32", "axis": [3], "momentum": 0.99, "epsilon": 0.001, "center": true, "scale": true, "beta_initializer": {"class_name": "Zeros", "config": {}}, "gamma_initializer": {"class_name": "Ones", "config": {}}, "moving_mean_initializer": {"class_name": "Zeros", "config": {}}, "moving_variance_initializer": {"class_name": "Ones", "config": {}}, "beta_regularizer": null, "gamma_regularizer": null, "beta_constraint": null, "gamma_constraint": null}, "inbound_nodes": [[["conv_pw_13", 0, 0, {}]]]}, {"name": "conv_pw_13_relu", "class_name": "ReLU", "config": {"name": "conv_pw_13_relu", "trainable": true, "dtype": "float32", "max_value": 6.0, "negative_slope": 0.0, "threshold": 0.0}, "inbound_nodes": [[["conv_pw_13_bn", 0, 0, {}]]]}, {"name": "conv2d", "class_name": "Conv2D", "config": {"name": "conv2d", "trainable": true, "dtype": "float32", "filters": 256, "kernel_size": [1, 1], "strides": [1, 1], "padding": "valid", "data_format": "channels_last", "dilation_rate": [1, 1], "activation": "linear", "use_bias": true, "kernel_initializer": {"class_name": "GlorotUniform", "config": {"seed": null}}, "bias_initializer": {"class_name": "Zeros", "config": {}}, "kernel_regularizer": null, "bias_regularizer": null, "activity_regularizer": null, "kernel_constraint": null, "bias_constraint": null}, "inbound_nodes": [[["conv_pw_13_relu", 0, 0, {}]]]}, {"name": "re_lu", "class_name": "ReLU", "config": {"name": "re_lu", "trainable": true, "dtype": "float32", "max_value": null, "negative_slope": 0.0, "threshold": 0.0}, "inbound_nodes": [[["conv2d", 0, 0, {}]]]}, {"name": "conv2d_1", "class_name": "Conv2D", "config": {"name": "conv2d_1", "trainable": true, "dtype": "float32", "filters": 512, "kernel_size": [3, 3], "strides": [2, 2], "padding": "same", "data_format": "channels_last", "dilation_rate": [1, 1], "activation": "linear", "use_bias": true, "kernel_initializer": {"class_name": "GlorotUniform", "config": {"seed": null}}, "bias_initializer": {"class_name": "Zeros", "config": {}}, "kernel_regularizer": null, "bias_regularizer": null, "activity_regularizer": null, "kernel_constraint": null, "bias_constraint": null}, "inbound_nodes": [[["re_lu", 0, 0, {}]]]}, {"name": "re_lu_1", "class_name": "ReLU", "config": {"name": "re_lu_1", "trainable": true, "dtype": "float32", "max_value": null, "negative_slope": 0.0, "threshold": 0.0}, "inbound_nodes": [[["conv2d_1", 0, 0, {}]]]}, {"name": "conv2d_2", "class_name": "Conv2D", "config": {"name": "conv2d_2", "trainable": true, "dtype": "float32", "filters": 128, "kernel_size": [1, 1], "strides": [1, 1], "padding": "valid", "data_format": "channels_last", "dilation_rate": [1, 1], "activation": "linear", "use_bias": true, "kernel_initializer": {"class_name": "GlorotUniform", "config": {"seed": null}}, "bias_initializer": {"class_name": "Zeros", "config": {}}, "kernel_regularizer": null, "bias_regularizer": null, "activity_regularizer": null, "kernel_constraint": null, "bias_constraint": null}, "inbound_nodes": [[["re_lu_1", 0, 0, {}]]]}, {"name": "re_lu_2", "class_name": "ReLU", "config": {"name": "re_lu_2", "trainable": true, "dtype": "float32", "max_value": null, "negative_slope": 0.0, "threshold": 0.0}, "inbound_nodes": [[["conv2d_2", 0, 0, {}]]]}, {"name": "conv2d_3", "class_name": "Conv2D", "config": {"name": "conv2d_3", "trainable": true, "dtype": "float32", "filters": 256, "kernel_size": [3, 3], "strides": [2, 2], "padding": "same", "data_format": "channels_last", "dilation_rate": [1, 1], "activation": "linear", "use_bias": true, "kernel_initializer": {"class_name": "GlorotUniform", "config": {"seed": null}}, "bias_initializer": {"class_name": "Zeros", "config": {}}, "kernel_regularizer": null, "bias_regularizer": null, "activity_regularizer": null, "kernel_constraint": null, "bias_constraint": null}, "inbound_nodes": [[["re_lu_2", 0, 0, {}]]]}, {"name": "re_lu_3", "class_name": "ReLU", "config": {"name": "re_lu_3", "trainable": true, "dtype": "float32", "max_value": null, "negative_slope": 0.0, "threshold": 0.0}, "inbound_nodes": [[["conv2d_3", 0, 0, {}]]]}, {"name": "conv2d_4", "class_name": "Conv2D", "config": {"name": "conv2d_4", "trainable": true, "dtype": "float32", "filters": 128, "kernel_size": [1, 1], "strides": [1, 1], "padding": "valid", "data_format": "channels_last", "dilation_rate": [1, 1], "activation": "linear", "use_bias": true, "kernel_initializer": {"class_name": "GlorotUniform", "config": {"seed": null}}, "bias_initializer": {"class_name": "Zeros", "config": {}}, "kernel_regularizer": null, "bias_regularizer": null, "activity_regularizer": null, "kernel_constraint": null, "bias_constraint": null}, "inbound_nodes": [[["re_lu_3", 0, 0, {}]]]}, {"name": "re_lu_4", "class_name": "ReLU", "config": {"name": "re_lu_4", "trainable": true, "dtype": "float32", "max_value": null, "negative_slope": 0.0, "threshold": 0.0}, "inbound_nodes": [[["conv2d_4", 0, 0, {}]]]}, {"name": "conv2d_5", "class_name": "Conv2D", "config": {"name": "conv2d_5", "trainable": true, "dtype": "float32", "filters": 256, "kernel_size": [3, 3], "strides": [2, 2], "padding": "same", "data_format": "channels_last", "dilation_rate": [1, 1], "activation": "linear", "use_bias": true, "kernel_initializer": {"class_name": "GlorotUniform", "config": {"seed": null}}, "bias_initializer": {"class_name": "Zeros", "config": {}}, "kernel_regularizer": null, "bias_regularizer": null, "activity_regularizer": null, "kernel_constraint": null, "bias_constraint": null}, "inbound_nodes": [[["re_lu_4", 0, 0, {}]]]}, {"name": "re_lu_5", "class_name": "ReLU", "config": {"name": "re_lu_5", "trainable": true, "dtype": "float32", "max_value": null, "negative_slope": 0.0, "threshold": 0.0}, "inbound_nodes": [[["conv2d_5", 0, 0, {}]]]}, {"name": "conv2d_6", "class_name": "Conv2D", "config": {"name": "conv2d_6", "trainable": true, "dtype": "float32", "filters": 128, "kernel_size": [1, 1], "strides": [1, 1], "padding": "valid", "data_format": "channels_last", "dilation_rate": [1, 1], "activation": "linear", "use_bias": true, "kernel_initializer": {"class_name": "GlorotUniform", "config": {"seed": null}}, "bias_initializer": {"class_name": "Zeros", "config": {}}, "kernel_regularizer": null, "bias_regularizer": null, "activity_regularizer": null, "kernel_constraint": null, "bias_constraint": null}, "inbound_nodes": [[["re_lu_5", 0, 0, {}]]]}, {"name": "re_lu_6", "class_name": "ReLU", "config": {"name": "re_lu_6", "trainable": true, "dtype": "float32", "max_value": null, "negative_slope": 0.0, "threshold": 0.0}, "inbound_nodes": [[["conv2d_6", 0, 0, {}]]]}, {"name": "conv2d_7", "class_name": "Conv2D", "config": {"name": "conv2d_7", "trainable": true, "dtype": "float32", "filters": 256, "kernel_size": [3, 3], "strides": [2, 2], "padding": "same", "data_format": "channels_last", "dilation_rate": [1, 1], "activation": "linear", "use_bias": true, "kernel_initializer": {"class_name": "GlorotUniform", "config": {"seed": null}}, "bias_initializer": {"class_name": "Zeros", "config": {}}, "kernel_regularizer": null, "bias_regularizer": null, "activity_regularizer": null, "kernel_constraint": null, "bias_constraint": null}, "inbound_nodes": [[["re_lu_6", 0, 0, {}]]]}, {"name": "re_lu_7", "class_name": "ReLU", "config": {"name": "re_lu_7", "trainable": true, "dtype": "float32", "max_value": null, "negative_slope": 0.0, "threshold": 0.0}, "inbound_nodes": [[["conv2d_7", 0, 0, {}]]]}, {"name": "conv2d_8", "class_name": "Conv2D", "config": {"name": "conv2d_8", "trainable": true, "dtype": "float32", "filters": 24, "kernel_size": [3, 3], "strides": [1, 1], "padding": "same", "data_format": "channels_last", "dilation_rate": [1, 1], "activation": "linear", "use_bias": true, "kernel_initializer": {"class_name": "GlorotUniform", "config": {"seed": null}}, "bias_initializer": {"class_name": "Zeros", "config": {}}, "kernel_regularizer": null, "bias_regularizer": null, "activity_regularizer": null, "kernel_constraint": null, "bias_constraint": null}, "inbound_nodes": [[["conv_pw_11_relu", 0, 0, {}]]]}, {"name": "conv2d_9", "class_name": "Conv2D", "config": {"name": "conv2d_9", "trainable": true, "dtype": "float32", "filters": 24, "kernel_size": [3, 3], "strides": [1, 1], "padding": "same", "data_format": "channels_last", "dilation_rate": [1, 1], "activation": "linear", "use_bias": true, "kernel_initializer": {"class_name": "GlorotUniform", "config": {"seed": null}}, "bias_initializer": {"class_name": "Zeros", "config": {}}, "kernel_regularizer": null, "bias_regularizer": null, "activity_regularizer": null, "kernel_constraint": null, "bias_constraint": null}, "inbound_nodes": [[["conv_pw_13_relu", 0, 0, {}]]]}, {"name": "conv2d_10", "class_name": "Conv2D", "config": {"name": "conv2d_10", "trainable": true, "dtype": "float32", "filters": 24, "kernel_size": [3, 3], "strides": [1, 1], "padding": "same", "data_format": "channels_last", "dilation_rate": [1, 1], "activation": "linear", "use_bias": true, "kernel_initializer": {"class_name": "GlorotUniform", "config": {"seed": null}}, "bias_initializer": {"class_name": "Zeros", "config": {}}, "kernel_regularizer": null, "bias_regularizer": null, "activity_regularizer": null, "kernel_constraint": null, "bias_constraint": null}, "inbound_nodes": [[["re_lu_1", 0, 0, {}]]]}, {"name": "conv2d_11", "class_name": "Conv2D", "config": {"name": "conv2d_11", "trainable": true, "dtype": "float32", "filters": 24, "kernel_size": [3, 3], "strides": [1, 1], "padding": "same", "data_format": "channels_last", "dilation_rate": [1, 1], "activation": "linear", "use_bias": true, "kernel_initializer": {"class_name": "GlorotUniform", "config": {"seed": null}}, "bias_initializer": {"class_name": "Zeros", "config": {}}, "kernel_regularizer": null, "bias_regularizer": null, "activity_regularizer": null, "kernel_constraint": null, "bias_constraint": null}, "inbound_nodes": [[["re_lu_3", 0, 0, {}]]]}, {"name": "conv2d_12", "class_name": "Conv2D", "config": {"name": "conv2d_12", "trainable": true, "dtype": "float32", "filters": 24, "kernel_size": [3, 3], "strides": [1, 1], "padding": "same", "data_format": "channels_last", "dilation_rate": [1, 1], "activation": "linear", "use_bias": true, "kernel_initializer": {"class_name": "GlorotUniform", "config": {"seed": null}}, "bias_initializer": {"class_name": "Zeros", "config": {}}, "kernel_regularizer": null, "bias_regularizer": null, "activity_regularizer": null, "kernel_constraint": null, "bias_constraint": null}, "inbound_nodes": [[["re_lu_5", 0, 0, {}]]]}, {"name": "conv2d_13", "class_name": "Conv2D", "config": {"name": "conv2d_13", "trainable": true, "dtype": "float32", "filters": 24, "kernel_size": [3, 3], "strides": [1, 1], "padding": "same", "data_format": "channels_last", "dilation_rate": [1, 1], "activation": "linear", "use_bias": true, "kernel_initializer": {"class_name": "GlorotUniform", "config": {"seed": null}}, "bias_initializer": {"class_name": "Zeros", "config": {}}, "kernel_regularizer": null, "bias_regularizer": null, "activity_regularizer": null, "kernel_constraint": null, "bias_constraint": null}, "inbound_nodes": [[["re_lu_7", 0, 0, {}]]]}, {"name": "reshape_1", "class_name": "Reshape", "config": {"name": "reshape_1", "trainable": true, "dtype": "float32", "target_shape": [-1, 4]}, "inbound_nodes": [[["conv2d_8", 0, 0, {}]]]}, {"name": "reshape_3", "class_name": "Reshape", "config": {"name": "reshape_3", "trainable": true, "dtype": "float32", "target_shape": [-1, 4]}, "inbound_nodes": [[["conv2d_9", 0, 0, {}]]]}, {"name": "reshape_5", "class_name": "Reshape", "config": {"name": "reshape_5", "trainable": true, "dtype": "float32", "target_shape": [-1, 4]}, "inbound_nodes": [[["conv2d_10", 0, 0, {}]]]}, {"name": "reshape_7", "class_name": "Reshape", "config": {"name": "reshape_7", "trainable": true, "dtype": "float32", "target_shape": [-1, 4]}, "inbound_nodes": [[["conv2d_11", 0, 0, {}]]]}, {"name": "reshape_9", "class_name": "Reshape", "config": {"name": "reshape_9", "trainable": true, "dtype": "float32", "target_shape": [-1, 4]}, "inbound_nodes": [[["conv2d_12", 0, 0, {}]]]}, {"name": "reshape_11", "class_name": "Reshape", "config": {"name": "reshape_11", "trainable": true, "dtype": "float32", "target_shape": [-1, 4]}, "inbound_nodes": [[["conv2d_13", 0, 0, {}]]]}, {"name": "concatenate_1", "class_name": "Concatenate", "config": {"name": "concatenate_1", "trainable": true, "dtype": "float32", "axis": 1}, "inbound_nodes": [[["reshape_1", 0, 0, {}], ["reshape_3", 0, 0, {}], ["reshape_5", 0, 0, {}], ["reshape_7", 0, 0, {}], ["reshape_9", 0, 0, {}], ["reshape_11", 0, 0, {}]]]}, {"name": "tf_op_layer_Slice_1", "class_name": "TensorFlowOpLayer", "config": {"name": "Slice_1", "trainable": true, "dtype": "float32", "node_def": {"name": "Slice_1", "op": "Slice", "input": ["concatenate_1/Identity", "Slice_1/begin", "Slice_1/size"], "attr": {"T": {"type": "DT_FLOAT"}, "Index": {"type": "DT_INT32"}}}, "constants": {"1": [0, 0, 0], "2": [-1, -1, 2]}}, "inbound_nodes": [[["concatenate_1", 0, 0, {}]]]}, {"name": "tf_op_layer_Slice", "class_name": "TensorFlowOpLayer", "config": {"name": "Slice", "trainable": true, "dtype": "float32", "node_def": {"name": "Slice", "op": "Slice", "input": ["concatenate_1/Identity", "Slice/begin", "Slice/size"], "attr": {"T": {"type": "DT_FLOAT"}, "Index": {"type": "DT_INT32"}}}, "constants": {"1": [0, 0, 2], "2": [-1, -1, -1]}}, "inbound_nodes": [[["concatenate_1", 0, 0, {}]]]}, {"name": "tf_op_layer_mul", "class_name": "TensorFlowOpLayer", "config": {"name": "mul", "trainable": true, "dtype": "float32", "node_def": {"name": "mul", "op": "Mul", "input": ["Slice_1", "mul/y"], "attr": {"T": {"type": "DT_FLOAT"}}}, "constants": {"1": 0.10000000149011612}}, "inbound_nodes": [[["tf_op_layer_Slice_1", 0, 0, {}]]]}, {"name": "tf_op_layer_mul_2", "class_name": "TensorFlowOpLayer", "config": {"name": "mul_2", "trainable": true, "dtype": "float32", "node_def": {"name": "mul_2", "op": "Mul", "input": ["Slice", "mul_2/y"], "attr": {"T": {"type": "DT_FLOAT"}}}, "constants": {"1": 0.20000000298023224}}, "inbound_nodes": [[["tf_op_layer_Slice", 0, 0, {}]]]}, {"name": "tf_op_layer_mul_1", "class_name": "TensorFlowOpLayer", "config": {"name": "mul_1", "trainable": true, "dtype": "float32", "node_def": {"name": "mul_1", "op": "Mul", "input": ["mul", "mul_1/y"], "attr": {"T": {"type": "DT_FLOAT"}}}, "constants": {"1": [[[… "inbound_nodes": [[["tf_op_layer_mul", 0, 0, {}]]]}, {"name": "tf_op_layer_Exp", "class_name": "TensorFlowOpLayer", "config": {"name": "Exp", "trainable": true, "dtype": "float32", "node_def": {"name": "Exp", "op": "Exp", "input": ["mul_2"], "attr": {"T": {"type": "DT_FLOAT"}}}, "constants": {}}, "inbound_nodes": [[["tf_op_layer_mul_2", 0, 0, {}]]]}, {"name": "tf_op_layer_add", "class_name": "TensorFlowOpLayer", "config": {"name": "add", "trainable": true, "dtype": "float32", "node_def": {"name": "add", "op": "AddV2", "input": ["mul_1", "add/y"], "attr": {"T": {"type": "DT_FLOAT"}}}, "constants": {"1": [[[… "inbound_nodes": [[["tf_op_layer_mul_1", 0, 0, {}]]]}, {"name": "tf_op_layer_mul_3", "class_name": "TensorFlowOpLayer", "config": {"name": "mul_3", "trainable": true, "dtype": "float32", "node_def": {"name": "mul_3", "op": "Mul", "input": ["Exp", "mul_1/y"], "attr": {"T": {"type": "DT_FLOAT"}}}, "constants": {"1": [[[… "inbound_nodes": [[["tf_op_layer_Exp", 0, 0, {}]]]}, {"name": "concatenate_2", "class_name": "Concatenate", "config": {"name": "concatenate_2", "trainable": true, "dtype": "float32", "axis": 2}, "inbound_nodes": [[["tf_op_layer_add", 0, 0, {}], ["tf_op_layer_mul_3", 0, 0, {}]]]}, {"name": "conv2d_14", "class_name": "Conv2D", "config": {"name": "conv2d_14", "trainable": true, "dtype": "float32", "filters": 126, "kernel_size": [3, 3], "strides": [1, 1], "padding": "same", "data_format": "channels_last", "dilation_rate": [1, 1], "activation": "linear", "use_bias": true, "kernel_initializer": {"class_name": "GlorotUniform", "config": {"seed": null}}, "bias_initializer": {"class_name": "Zeros", "config": {}}, "kernel_regularizer": null, "bias_regularizer": null, "activity_regularizer": null, "kernel_constraint": null, "bias_constraint": null}, "inbound_nodes": [[["conv_pw_11_relu", 0, 0, {}]]]}, {"name": "conv2d_15", "class_name": "Conv2D", "config": {"name": "conv2d_15", "trainable": true, "dtype": "float32", "filters": 126, "kernel_size": [3, 3], "strides": [1, 1], "padding": "same", "data_format": "channels_last", "dilation_rate": [1, 1], "activation": "linear", "use_bias": true, "kernel_initializer": {"class_name": "GlorotUniform", "config": {"seed": null}}, "bias_initializer": {"class_name": "Zeros", "config": {}}, "kernel_regularizer": null, "bias_regularizer": null, "activity_regularizer": null, "kernel_constraint": null, "bias_constraint": null}, "inbound_nodes": [[["conv_pw_13_relu", 0, 0, {}]]]}, {"name": "conv2d_16", "class_name": "Conv2D", "config": {"name": "conv2d_16", "trainable": true, "dtype": "float32", "filters": 126, "kernel_size": [3, 3], "strides": [1, 1], "padding": "same", "data_format": "channels_last", "dilation_rate": [1, 1], "activation": "linear", "use_bias": true, "kernel_initializer": {"class_name": "GlorotUniform", "config": {"seed": null}}, "bias_initializer": {"class_name": "Zeros", "config": {}}, "kernel_regularizer": null, "bias_regularizer": null, "activity_regularizer": null, "kernel_constraint": null, "bias_constraint": null}, "inbound_nodes": [[["re_lu_1", 0, 0, {}]]]}, {"name": "conv2d_17", "class_name": "Conv2D", "config": {"name": "conv2d_17", "trainable": true, "dtype": "float32", "filters": 126, "kernel_size": [3, 3], "strides": [1, 1], "padding": "same", "data_format": "channels_last", "dilation_rate": [1, 1], "activation": "linear", "use_bias": true, "kernel_initializer": {"class_name": "GlorotUniform", "config": {"seed": null}}, "bias_initializer": {"class_name": "Zeros", "config": {}}, "kernel_regularizer": null, "bias_regularizer": null, "activity_regularizer": null, "kernel_constraint": null, "bias_constraint": null}, "inbound_nodes": [[["re_lu_3", 0, 0, {}]]]}, {"name": "conv2d_18", "class_name": "Conv2D", "config": {"name": "conv2d_18", "trainable": true, "dtype": "float32", "filters": 126, "kernel_size": [3, 3], "strides": [1, 1], "padding": "same", "data_format": "channels_last", "dilation_rate": [1, 1], "activation": "linear", "use_bias": true, "kernel_initializer": {"class_name": "GlorotUniform", "config": {"seed": null}}, "bias_initializer": {"class_name": "Zeros", "config": {}}, "kernel_regularizer": null, "bias_regularizer": null, "activity_regularizer": null, "kernel_constraint": null, "bias_constraint": null}, "inbound_nodes": [[["re_lu_5", 0, 0, {}]]]}, {"name": "conv2d_19", "class_name": "Conv2D", "config": {"name": "conv2d_19", "trainable": true, "dtype": "float32", "filters": 126, "kernel_size": [3, 3], "strides": [1, 1], "padding": "same", "data_format": "channels_last", "dilation_rate": [1, 1], "activation": "linear", "use_bias": true, "kernel_initializer": {"class_name": "GlorotUniform", "config": {"seed": null}}, "bias_initializer": {"class_name": "Zeros", "config": {}}, "kernel_regularizer": null, "bias_regularizer": null, "activity_regularizer": null, "kernel_constraint": null, "bias_constraint": null}, "inbound_nodes": [[["re_lu_7", 0, 0, {}]]]}, {"name": "tf_op_layer_strided_slice_1", "class_name": "TensorFlowOpLayer", "config": {"name": "strided_slice_1", "trainable": true, "dtype": "float32", "node_def": {"name": "strided_slice_1", "op": "StridedSlice", "input": ["concatenate_2/Identity", "strided_slice_1/begin", "strided_slice_1/end", "strided_slice_1/strides"], "attr": {"T": {"type": "DT_FLOAT"}, "Index": {"type": "DT_INT32"}, "shrink_axis_mask": {"i": "0"}, "begin_mask": {"i": "0"}, "ellipsis_mask": {"i": "1"}, "new_axis_mask": {"i": "0"}, "end_mask": {"i": "2"}}}, "constants": {"1": [0, 2], "2": [0, 0], "3": [1, 1]}}, "inbound_nodes": [[["concatenate_2", 0, 0, {}]]]}, {"name": "tf_op_layer_strided_slice_3", "class_name": "TensorFlowOpLayer", "config": {"name": "strided_slice_3", "trainable": true, "dtype": "float32", "node_def": {"name": "strided_slice_3", "op": "StridedSlice", "input": ["concatenate_2/Identity", "strided_slice_3/begin", "strided_slice_3/end", "strided_slice_3/strides"], "attr": {"T": {"type": "DT_FLOAT"}, "Index": {"type": "DT_INT32"}, "shrink_axis_mask": {"i": "0"}, "begin_mask": {"i": "0"}, "ellipsis_mask": {"i": "1"}, "new_axis_mask": {"i": "0"}, "end_mask": {"i": "2"}}}, "constants": {"1": [0, 2], "2": [0, 0], "3": [1, 1]}}, "inbound_nodes": [[["concatenate_2", 0, 0, {}]]]}, {"name": "reshape", "class_name": "Reshape", "config": {"name": "reshape", "trainable": true, "dtype": "float32", "target_shape": [-1, 21]}, "inbound_nodes": [[["conv2d_14", 0, 0, {}]]]}, {"name": "reshape_2", "class_name": "Reshape", "config": {"name": "reshape_2", "trainable": true, "dtype": "float32", "target_shape": [-1, 21]}, "inbound_nodes": [[["conv2d_15", 0, 0, {}]]]}, {"name": "reshape_4", "class_name": "Reshape", "config": {"name": "reshape_4", "trainable": true, "dtype": "float32", "target_shape": [-1, 21]}, "inbound_nodes": [[["conv2d_16", 0, 0, {}]]]}, {"name": "reshape_6", "class_name": "Reshape", "config": {"name": "reshape_6", "trainable": true, "dtype": "float32", "target_shape": [-1, 21]}, "inbound_nodes": [[["conv2d_17", 0, 0, {}]]]}, {"name": "reshape_8", "class_name": "Reshape", "config": {"name": "reshape_8", "trainable": true, "dtype": "float32", "target_shape": [-1, 21]}, "inbound_nodes": [[["conv2d_18", 0, 0, {}]]]}, {"name": "reshape_10", "class_name": "Reshape", "config": {"name": "reshape_10", "trainable": true, "dtype": "float32", "target_shape": [-1, 21]}, "inbound_nodes": [[["conv2d_19", 0, 0, {}]]]}, {"name": "tf_op_layer_strided_slice", "class_name": "TensorFlowOpLayer", "config": {"name": "strided_slice", "trainable": true, "dtype": "float32", "node_def": {"name": "strided_slice", "op": "StridedSlice", "input": ["concatenate_2/Identity", "strided_slice/begin", "strided_slice/end", "strided_slice/strides"], "attr": {"T": {"type": "DT_FLOAT"}, "Index": {"type": "DT_INT32"}, "shrink_axis_mask": {"i": "0"}, "begin_mask": {"i": "2"}, "ellipsis_mask": {"i": "1"}, "new_axis_mask": {"i": "0"}, "end_mask": {"i": "0"}}}, "constants": {"1": [0, 0], "2": [0, 2], "3": [1, 1]}}, "inbound_nodes": [[["concatenate_2", 0, 0, {}]]]}, {"name": "tf_op_layer_truediv", "class_name": "TensorFlowOpLayer", "config": {"name": "truediv", "trainable": true, "dtype": "float32", "node_def": {"name": "truediv", "op": "RealDiv", "input": ["strided_slice_1", "truediv/y"], "attr": {"T": {"type": "DT_FLOAT"}}}, "constants": {"1": 2.0}}, "inbound_nodes": [[["tf_op_layer_strided_slice_1", 0, 0, {}]]]}, {"name": "tf_op_layer_strided_slice_2", "class_name": "TensorFlowOpLayer", "config": {"name": "strided_slice_2", "trainable": true, "dtype": "float32", "node_def": {"name": "strided_slice_2", "op": "StridedSlice", "input": ["concatenate_2/Identity", "strided_slice_2/begin", "strided_slice_2/end", "strided_slice_2/strides"], "attr": {"T": {"type": "DT_FLOAT"}, "Index": {"type": "DT_INT32"}, "shrink_axis_mask": {"i": "0"}, "begin_mask": {"i": "2"}, "ellipsis_mask": {"i": "1"}, "new_axis_mask": {"i": "0"}, "end_mask": {"i": "0"}}}, "constants": {"1": [0, 0], "2": [0, 2], "3": [1, 1]}}, "inbound_nodes": [[["concatenate_2", 0, 0, {}]]]}, {"name": "tf_op_layer_truediv_1", "class_name": "TensorFlowOpLayer", "config": {"name": "truediv_1", "trainable": true, "dtype": "float32", "node_def": {"name": "truediv_1", "op": "RealDiv", "input": ["strided_slice_3", "truediv_1/y"], "attr": {"T": {"type": "DT_FLOAT"}}}, "constants": {"1": 2.0}}, "inbound_nodes": [[["tf_op_layer_strided_slice_3", 0, 0, {}]]]}, {"name": "concatenate", "class_name": "Concatenate", "config": {"name": "concatenate", "trainable": true, "dtype": "float32", "axis": 1}, "inbound_nodes": [[["reshape", 0, 0, {}], ["reshape_2", 0, 0, {}], ["reshape_4", 0, 0, {}], ["reshape_6", 0, 0, {}], ["reshape_8", 0, 0, {}], ["reshape_10", 0, 0, {}]]]}, {"name": "tf_op_layer_sub", "class_name": "TensorFlowOpLayer", "config": {"name": "sub", "trainable": true, "dtype": "float32", "node_def": {"name": "sub", "op": "Sub", "input": ["strided_slice", "truediv"], "attr": {"T": {"type": "DT_FLOAT"}}}, "constants": {}}, "inbound_nodes": [[["tf_op_layer_strided_slice", 0, 0, {}], ["tf_op_layer_truediv", 0, 0, {}]]]}, {"name": "tf_op_layer_add_1", "class_name": "TensorFlowOpLayer", "config": {"name": "add_1", "trainable": true, "dtype": "float32", "node_def": {"name": "add_1", "op": "AddV2", "input": ["strided_slice_2", "truediv_1"], "attr": {"T": {"type": "DT_FLOAT"}}}, "constants": {}}, "inbound_nodes": [[["tf_op_layer_strided_slice_2", 0, 0, {}], ["tf_op_layer_truediv_1", 0, 0, {}]]]}, {"name": "softmax", "class_name": "Softmax", "config": {"name": "softmax", "trainable": true, "dtype": "float32", "axis": 2}, "inbound_nodes": [[["concatenate", 0, 0, {}]]]}, {"name": "tf_op_layer_concat", "class_name": "TensorFlowOpLayer", "config": {"name": "concat", "trainable": true, "dtype": "float32", "node_def": {"name": "concat", "op": "ConcatV2", "input": ["sub", "add_1", "concat/axis"], "attr": {"Tidx": {"type": "DT_INT32"}, "T": {"type": "DT_FLOAT"}, "N": {"i": "2"}}}, "constants": {"2": 2}}, "inbound_nodes": [[["tf_op_layer_sub", 0, 0, {}], ["tf_op_layer_add_1", 0, 0, {}]]]}], "input_layers": [["input_1", 0, 0]], "output_layers": [["softmax", 0, 0], ["tf_op_layer_concat", 0, 0]]}, "keras_version": "2.2.4-tf", "backend": "tensorflow"}